game/app/src/main/assets/model4.tflite (tflite, 863680 bytes, 8 tensors)

arith.constant f4 [128]
000000 29 d4 df 3c 46 cc 9b bb f1 f5 17 ba 82 f4 eb bb
       0.027322846 -0.004754576 -0.0005796841 -0.0072007785
000010 fc a8 9d 3b 88 4a 85 3b 07 b1 ab bc ea 12 38 3c
       0.0048114043 0.0040677227 -0.020958437 0.011234978
000020 40 cf 4b bc 9d e1 dc bb 95 d5 19 3c 7e 99 b0 bb
       -0.012439549 -0.0067407624 0.009389301 -0.0053893914
000030 1c 8c 27 3c 69 22 7a 3b a3 37 42 3c 66 90 ca 3a
       0.010226276 0.0038167483 0.011854085 0.0015454411
000040 54 ec 1a 3c 06 d7 03 bb 52 84 d8 ba 4a 35 1a 3c
       0.009455759 -0.0020117178 -0.0016518927 0.009412119
000050 e8 29 09 3c e2 5d 0f bc 9e b9 b6 3a 45 6a ad 3b
       0.008371808 -0.008750411 0.0013940816 0.0052922093
000060 65 fd 8a bc d0 e2 1f bc 30 dd bb 3b 88 43 b2 3c
       -0.016966531 -0.009758666 0.0057331547 0.021760717
000070 ed 23 4a bc 7a 45 c3 3b b2 35 2d 3b e3 b3 8c bb
       -0.012337667 0.00595921 0.002642971 -0.004293905
000080 c2 39 00 3c 10 e8 43 bc 50 e8 48 3c 30 f1 a5 bb
       0.007826271 -0.0119571835 0.012262419 -0.005064152
000090 e0 b6 8b 3a eb 74 8f bc 14 76 18 bc b7 1a a7 bc
       0.0010659359 -0.017511806 -0.009305496 -0.02039848
0000a0 92 ce 93 3b f4 a8 42 bc 59 fc a8 bc e0 2e 39 ba
       0.004510709 -0.011881102 -0.020628141 -0.0007064175
0000b0 ab 55 0a 3a 96 10 a8 bb 18 94 32 3b b9 96 ea bb
       0.0005277048 -0.0051289303 0.0027248915 -0.007159081
0000c0 40 67 bf 3c bd 6b f2 bb 98 aa ac bb 19 c6 ca bb
       0.023364663 -0.0073980973 -0.00526936 -0.006188166
0000d0 02 c4 b3 ba 49 7f f6 bb 6b 99 9b bc b2 b8 6d bc
       -0.0013715031 -0.007522498 -0.018994054 -0.014509367
0000e0 f6 3a c6 b8 f3 99 c9 3b 2e 19 18 3c e9 56 8e 3b
       -9.452358e-05 0.0061523854 0.009283347 0.0043438566
0000f0 f2 52 33 bc f4 13 06 bb e6 aa a3 39 bd e9 bd bc
       -0.010945069 -0.002045867 0.00031217112 -0.023182744
000100 d5 34 1b bc f8 63 8a 3b 07 dd 5b bb d1 27 c4 3b
       -0.009473045 0.004223343 -0.003354849 0.005986192
000110 8c 76 a4 3b 11 58 b9 3b 38 48 95 3b 74 19 80 bc
       0.0050190147 0.0056562503 0.0045557283 -0.015637137
000120 fd ed 15 3c 8c 8c 46 3b f1 e0 fa bb f7 79 29 3d
       0.009150979 0.0030296175 -0.0076562096 0.04137608
000130 83 16 9e bb 81 4f 24 bc 64 8c c8 3c 37 2c 9d b9
       -0.004824461 -0.010028721 0.024481006 -0.00029978316
000140 a3 cc aa 3c 2d 77 05 3b 58 0c 01 3c 4f 5b 3a ba
       0.020849532 0.0020365224 0.007876478 -0.0007108943
000150 50 03 2f ba 93 65 8b bb b3 af ac bb 00 70 2c bc
       -0.0006676214 -0.004254052 -0.0052699684 -0.01052475
000160 fc 93 9a bb e6 88 83 3b b1 99 42 bc a8 1e 40 bc
       -0.004717348 0.0040141223 -0.011877463 -0.011726059
000170 0e dc e1 bb 9e c8 0b bc cd 6f ed 3b 5d 58 51 3c
       -0.0068926876 -0.008531718 0.0072459937 0.012777415
000180 6f 60 ff bc dc 7f 2e 39 73 18 30 3c 52 1a 3b 3c
       -0.031173913 0.00016641564 0.010748017 0.0114198495
000190 bc ed c4 bb 28 b3 6e 3c 71 75 25 bb aa ca 46 bb
       -0.0060097855 0.014569081 -0.0025247002 -0.00303332
0001a0 96 e0 7d 3b 1e 81 d0 bb 6b c7 bf bb 3f a9 cb 3b
       0.00387386 -0.006363048 -0.00585263 0.006215244
0001b0 43 aa 0a bc 06 d3 30 bc 7f 8a 24 bc 72 f4 90 ba
       -0.008463445 -0.010792499 -0.010042786 -0.0011059179
0001c0 fe 4f 77 bc 3d a5 af bb 9e a6 a5 3b 2f 0d 50 3b
       -0.015094755 -0.005360274 0.0050552627 0.003174614
0001d0 32 16 59 3c ea e6 ff b9 04 eb c8 3b 06 8e 9b 3c
       0.013249921 -0.00048809435 0.0061315317 0.01898862
0001e0 40 7f 2a bc eb 64 e6 bb 62 7d 19 bb 3b d6 93 bb
       -0.010406315 -0.0070310733 -0.0023420681 -0.0045116222
0001f0 79 7e 28 3c 52 96 21 bc 92 25 35 3c 0d 5d 23 ba
       0.01028406 -0.009862499 0.011056321 -0.0006231822

arith.constant1 f4 [64]
000000 c7 e1 9c 3c 7e fd 51 bc ed 03 6f 3b d4 6d 78 3c
       0.019150628 -0.012816785 0.0036470846 0.015162904
000010 38 51 a7 bc 08 2e 21 3a 34 3e 02 3d e8 08 c7 3c
       -0.02042447 0.0006148522 0.031797603 0.024296239
000020 25 24 cb ba 03 4e 37 3a 47 4d cd bc 4b ac e4 bc
       -0.0015498443 0.00069925206 -0.025061263 -0.027914187
000030 72 bd 67 3c f8 dc db bc 27 ee 37 3b 9e 09 1c bd
       0.014144288 -0.026838765 0.0028065534 -0.03809511
000040 16 68 fc 3c 03 e9 0f 3a 68 be 6d ba 5b 15 57 bc
       0.03081135 0.00054897385 -0.0009069205 -0.01312765
000050 79 75 6a 3c d6 c1 a7 bb a9 22 5b 3b 11 53 89 3c
       0.014310234 -0.0051195426 0.0033437407 0.016763242
000060 48 f0 8b 3c b6 0f 52 bb a7 7c 09 bb dd d5 12 3c
       0.017082348 -0.0032052821 -0.002097884 0.008962122
000070 83 41 93 3c 62 66 e6 bb 6c bc 92 3c e2 a4 39 bb
       0.017975574 -0.007031248 0.017912112 -0.0028327038
000080 d6 80 3e bd 67 ef 33 3d 50 1c 8e 3c b1 0e 30 3c
       -0.046509586 0.043929484 0.017347485 0.01074569
000090 2e 81 9c bc cb 94 d4 bb 70 75 54 bc 91 45 74 bc
       -0.019104566 -0.006487464 -0.012967452 -0.014909164
0000a0 3e 8e 12 bc 5c ea 5f bc 1f f8 0d 3d 57 95 cd b9
       -0.008945046 -0.0136667155 0.034660455 -0.00039211914
0000b0 97 57 5e 3c 63 7d c3 3b 81 93 59 3b 07 1b 1b bd
       0.013570688 0.005965875 0.0033199491 -0.037867572
0000c0 2b 53 5f 3b c9 23 00 bd 66 bb 6e 3a 70 77 a4 b9
       0.0034076672 -0.031284127 0.0009106904 -0.00031369505
0000d0 61 f6 79 bc ce 5e 45 3c 06 cd 4f 3c cd a7 0f 3d
       -0.015256495 0.012046529 0.012683159 0.035072137
0000e0 75 31 9b 39 80 6e d6 bb ce b4 74 3b f3 d7 74 bc
       0.00029600752 -0.0065439343 0.0037339213 -0.014944064
0000f0 b0 97 ae 3c a2 dc 39 3c 68 4d 88 3c 76 06 f4 3c
       0.021312565 0.011344107 0.016638473 0.029788237

arith.constant5 f4 [128, 1, 3, 64]
000000 c7 f1 bc bd 66 7f ee bd da dd 41 3d 2f 43 3b bc
       -0.09225803 -0.11645393 0.047330715 -0.011429592
000010 67 66 90 3d a4 e5 4f 3d 16 b5 a4 3d fe a0 17 bd
       0.07050782 0.05075611 0.08042352 -0.03701877
000020 b7 61 70 bd d6 96 0c 3d 76 35 6d bd e0 62 f9 bc
       -0.058686938 0.034323536 -0.057912312 -0.030442655
000030 05 6d c1 3c b7 0d 8d bd b9 7a 6b bd c4 a9 fc 3d
       0.023611555 -0.068873815 -0.057490084 0.12337068
000040 07 e0 a8 bd ac 55 af 3d ee 33 d1 bc 16 c5 04 bc
       -0.08245855 0.085612625 -0.025537457 -0.00810363
000050 97 fc bd 3c 9a 2f b0 bd 35 2f 19 bd d9 2e 9b 3d
       0.023191733 -0.08602829 -0.037398536 0.07577295
000060 bf 44 8f 3c f1 58 dc 3c bc 32 00 bd 84 8c 6d 3d
       0.017488835 0.02689788 -0.031298384 0.057995334
000070 22 a1 01 be 6e ef cc bd 0c 89 48 3d 75 26 eb 3c
       -0.12659124 -0.10006605 0.048958823 0.028704861
000080 31 14 8f bd 7d c6 03 3e 4f 71 9e 3d b1 e9 76 3d
       -0.06986273 0.12868686 0.07736456 0.06028146
000090 82 b7 8c 3c d9 19 14 bd 9d 38 0c 3e ca ee c0 bd
       0.017177347 -0.036157463 0.13693471 -0.094205454
0000a0 d3 01 91 bd b3 c8 9e 3d c6 84 b2 3d 96 9f 58 bc
       -0.07080426 0.07753124 0.08716731 -0.013221642
0000b0 e9 5a b3 3c 19 2a 8f bd 4d 67 91 3d 36 f4 40 3d
       0.021893935 -0.06990451 0.07099781 0.047107898
0000c0 db 3a 27 bd 43 42 ee bc d3 6e fc bd 5c d2 c7 3d
       -0.040827613 -0.02908433 -0.123258255 0.0975692
0000d0 c6 3d a0 bd fb 0f 91 bb 9f 2d 13 bc 0f 69 0e bd
       -0.07824282 -0.004426954 -0.008983045 -0.03476816
0000e0 9f 93 29 bd f1 53 ae bd 0c 42 05 3d d9 60 f4 3b
       -0.041400548 -0.08512104 0.03253369 0.007457834
0000f0 e7 70 b5 3d b3 26 3a bc b3 a4 8d 3d 8e e5 24 bd
       0.08859425 -0.011361766 0.069161795 -0.040257983
000100 ad 0e 01 bd d3 8d 97 bd ac 2d f4 3b 34 10 c4 bd
       -0.031508137 -0.07400098 0.0074517336 -0.09573403
000110 0e f9 92 3b 8b f1 fb bb ed 01 74 bc fd 87 4a 3d
       0.004485256 -0.0076887063 -0.014893037 0.049446095
000120 a4 18 3e 3d 6a 08 a0 bd 8b 97 0c be 5f 31 5f 3d
       0.046410218 -0.07814105 -0.13729684 0.054490443
000130 4a 48 a1 3c 72 47 d4 bd 42 1f db bc 42 bb 91 bc
       0.01968779 -0.103651896 -0.026748303 -0.017789487
000140 2e c2 a4 bd 63 31 19 bd a0 4c 00 3e b2 c3 de bd
       -0.08044849 -0.037400614 0.1252923 -0.1087717
000150 4c a5 6a bd a5 da ee 3b 74 c5 a0 bc bf d8 40 bd
       -0.057286546 0.007289248 -0.019625403 -0.047081705
000160 ee 4a e5 3d 88 a3 5f bd 4f 18 12 3d cd f8 1b 3e
       0.11195932 -0.054599315 0.035667714 0.15231629
000170 63 82 1b bc 9d 00 75 bc 57 bc 5d ba 64 c5 aa 3d
       -0.009491536 -0.0149537595 -0.0008458546 0.083384305
000180 b5 ac fb bc b9 1c b7 3d 29 de a0 3d 25 c9 95 bc
       -0.030722002 0.08941025 0.07854874 -0.01828439
000190 5a 69 75 bd 4c 25 45 3d 3f 4f 8a 3d 37 58 92 bd
       -0.059914924 0.048131272 0.06753396 -0.07145732
0001a0 7f b9 49 bd 64 a8 c6 3d f2 93 34 bd 34 eb 8c bd
       -0.04924917 0.09700087 -0.044086404 -0.06880799
0001b0 49 5d 7e 3d 6c 84 90 bc 6c ea 73 bd 2c d8 a5 bb
       0.062100682 -0.017641269 -0.059549734 -0.00506117
0001c0 42 00 aa bd 7b 52 f5 bc 07 41 01 be a9 fa b6 bd
       -0.083008304 -0.029946556 -0.12622462 -0.089345284
0001d0 db 88 3d bc 80 00 d2 3d e0 dd 8c 3d d3 71 ab 3d
       -0.011568273 0.102540016 0.06878257 0.083713196
0001e0 4a 91 19 3d 1e 13 90 bd bd 63 9c bd 6d 44 58 3b
       0.037492074 -0.07034896 -0.07636211 0.003299977
0001f0 33 47 df 3d a9 3b 9c 3d 58 e1 a9 bc 3c 3a 5c bd
       0.10902252 0.07628567 -0.020737335 -0.053766474
000200 da 5c a7 bd a1 46 76 bd df c5 89 3d ad 45 88 bd
       -0.08172007 -0.06012595 0.06727194 -0.066539146
000210 08 cf 5c bd 45 40 01 be c5 d4 d2 3c 9b 72 d8 3d
       -0.053908378 -0.12622173 0.025736222 0.10568734
000220 73 14 73 3d 09 0d d0 3d cd a8 e9 bd 0f f6 ae 3d
       0.059345674 0.10158736 -0.11409149 0.08543026
000230 0f 25 49 bd 73 e0 d4 3b 85 da 8d bd f0 ad 5f 3d
       -0.049107607 0.006496483 -0.06926445 0.05460924
000240 84 e1 b6 3d a2 31 be 3d a3 3e d4 bc 39 1e 72 3d
       0.089297324 0.092868105 -0.025908774 0.059110854
000250 73 0e 27 3d 80 0a e4 bd af 76 9d bd fa 45 7e bc
       0.040785264 -0.11134815 -0.07688653 -0.015519613
000260 ac 7c aa 3d 7c 52 60 3c 1e 42 c0 3b 66 24 50 3c
       0.083245605 0.013691541 0.005867257 0.012703991
000270 37 04 ec bd 13 fe 91 bd 13 2f ce 3d 80 ec 72 3d
       -0.115242414 -0.07128539 0.100675724 0.059307575
000280 00 ba 3e bc 2c 27 69 bd 94 ed d4 bc 3b 78 99 3d
       -0.011641026 -0.056922123 -0.025992192 0.07493635
000290 e9 25 18 3d 18 7e d6 bd 5d 32 20 3e 99 51 5e 3d
       0.03714553 -0.10473269 0.15644212 0.054277036
0002a0 db 61 ee 3d 3f 06 bf 3d 26 e2 81 39 c5 22 f2 3c
       0.11639758 0.09327363 0.0002477329 0.029557595
0002b0 9b de 47 3b b0 29 50 3d 17 ac 2c bd 46 24 9d 3d
       0.0030497673 0.050821006 -0.042156305 0.07672934
0002c0 9b 3b 27 3d 60 64 9b 3d f7 34 bb 3c f8 f0 95 b9
       0.04082833 0.075875044 0.022852404 -0.0002859903
0002d0 81 23 89 3d 3c f5 f7 3b 6e 0a c2 3c 1c 52 5f bd
       0.06696225 0.007567076 0.023686614 -0.054521665
0002e0 f8 ac 28 bc ea f6 47 3d db eb e3 bd fc 4b a1 bd
       -0.010295145 0.04881946 -0.1112897 -0.07875821
0002f0 f5 00 77 3d e6 ed 83 bd d8 b5 8d 3d 8b 4b 8c bc
       0.060303647 -0.0644186 0.069194496 -0.017125865
000300 11 7e da bd 42 86 a4 3c 50 36 d7 bd 91 4a 41 3d
       -0.106685765 0.02008355 -0.10508406 0.047190253
000310 58 49 da bc 77 c8 5d bd 90 5f b6 bd 62 11 e9 3c
       -0.026646301 -0.054146256 -0.08904946 0.028450672
000320 d0 ca 50 bd 1b 68 ba bc 10 85 3d bd 48 ec 91 3d
       -0.050974667 -0.02275472 -0.046269476 0.07125145
000330 63 59 a0 3d bf 17 45 bd 86 0a fc bc 31 8f aa 3d
       0.07829549 -0.04811835 -0.030766737 0.08328093
000340 34 df a5 bd 74 da 8d bd 6b 00 b7 3c 56 54 d0 bd
       -0.08099213 -0.06926432 0.022339066 -0.10172336
000350 ed 6e d0 b9 9e 69 27 3d 80 a5 48 3b 6e 2f 90 bb
       -0.00039755498 0.04087221 0.0030616224 -0.0044001853
000360 2a 99 6e 3d 12 0c d8 3c 5d 64 77 bd f5 68 6d bc
       0.058251537 0.026372943 -0.06039845 -0.014490356
000370 bc 66 bf bd de f7 a2 bd 89 ef 30 bc a8 8f 83 3d
       -0.09345767 -0.07957433 -0.010799297 0.06423885
000380 3e d8 8e bd 28 27 94 3d 12 17 b3 bd 45 67 a4 bc
       -0.06974839 0.07234031 -0.08744635 -0.020068774
000390 3c d0 ae 3c d7 e6 70 3b 57 74 00 3e c1 44 c1 bd
       0.021339528 0.0036758685 0.1254438 -0.09436942
0003a0 18 0d 0e 3d a7 47 77 3d 5c 0c 98 bd d2 68 c5 bd
       0.034680456 0.060371067 -0.07424232 -0.096391335
0003b0 75 68 5c bd dd 9a c9 3c c3 05 cd 3d 8d ba 0f 3d
       -0.053810555 0.024609977 0.100108646 0.035090018
0003c0 05 17 84 3d 67 69 b6 bd 5a 4c 4d 3d ea 47 76 3b
       0.06449703 -0.08906823 0.050121643 0.0037579485
0003d0 e0 02 5d 3d 02 b1 74 3d 74 03 a6 3c 96 1d 46 bc
       0.05395782 0.05973912 0.020265318 -0.012092015
0003e0 05 81 91 bd 13 ad d9 3d f6 2e a8 3c dd 4f ca 3c
       -0.07104687 0.106287144 0.020530205 0.024696285
0003f0 cd 1a b0 3d 90 2f 04 bd 7d e5 04 3e f1 e3 79 bd
       0.08598862 -0.03227192 0.12978168 -0.061008397

arith.constant6 f4 [64, 1, 3, 6]
000000 57 22 be bd 94 3d 27 be f8 ed d5 bd 0c ee 7f 3d
       -0.092838936 -0.16332084 -0.104457796 0.06248288
000010 4d be fc bd 48 d7 1e be 74 ba 79 bc ce d5 62 3c
       -0.123409845 -0.15511811 -0.015242208 0.01384492
000020 56 6f 88 3d 41 46 29 3e 23 19 f4 3d bc a0 9e 3b
       0.06661861 0.16530706 0.11918857 0.0048409384
000030 2b bd f4 bd 73 e5 36 be c4 e7 c7 bd a4 0a 81 bd
       -0.119501434 -0.17860965 -0.09761003 -0.06300858
000040 19 bb 0b 3e 63 59 86 bd 6c 1d c5 3d 7d c8 ec 3d
       0.13645591 -0.06560018 0.096247524 0.115616776
000050 73 9c c5 3d ae 7c 86 bd 21 d9 19 3e a8 ed eb bd
       0.09648981 -0.065667495 0.15024234 -0.11519939
000060 8b 16 8c 3b fa 98 61 bd 87 18 26 3e b6 c1 00 3e
       0.0042751483 -0.05507753 0.16220294 0.12573895
000070 24 fc c7 bc 33 f1 d2 3d 61 4b 18 3e 7a 94 07 be
       -0.024412222 0.10299911 0.14872505 -0.13240233
000080 91 ef eb 3d 9f be 28 bd ea 7d 2e 3e 46 32 1a bd
       0.11520303 -0.041197415 0.1704022 -0.0376456
000090 82 74 84 bd 20 ad 57 bb e8 8b ea bd 68 27 34 be
       -0.064675346 -0.0032909587 -0.11452466 -0.17593157
0000a0 d9 9a fa 3d 83 94 f0 bd 62 33 31 be 6d 57 5d 3e
       0.12236566 -0.11747076 -0.17304757 0.21615382
0000b0 c7 f3 1b bd 5b 07 2f be 79 39 21 3c cb 2c 42 3e
       -0.03807428 -0.1709265 0.009840363 0.189624
0000c0 79 d3 55 3d 99 d4 8e 3d a9 d4 27 bd e6 17 25 be
       0.05220363 0.069741435 -0.040974293 -0.16122398
0000d0 5a c9 cc bd b4 bd 29 3e 53 75 1f be 96 d4 dd bd
       -0.09999342 0.16576272 -0.155721 -0.10831563
0000e0 9f 73 16 be b2 e0 53 3e 64 7c 1d 3e 34 e5 cd 3d
       -0.14692543 0.20691183 0.15379483 0.10053483
0000f0 01 55 c7 3d 28 46 7d bc 97 45 88 ba bc 3e d8 3d
       0.0973301 -0.015458621 -0.0010396716 0.10558841
000100 a8 96 c1 3d 68 38 02 3e d2 69 23 be 90 77 10 3d
       0.094525635 0.1271683 -0.15958336 0.035270274
000110 e0 21 0a 3c dd 38 b0 3d 24 e1 2b be f0 36 f4 bb
       0.008430928 0.08604596 -0.16785103 -0.007452838
000120 34 1e 0a be 67 1f b7 3d 9b 2b 7c 3d 80 9d 83 3d
       -0.13488084 0.089415364 0.061565023 0.06426525
000130 de c2 5d 3e 43 9f 2b 3e 1e 7d 28 bd a0 0c 29 3d
       0.21656367 0.16759972 -0.041134946 0.041271806
000140 54 d7 e5 3d 57 17 2b be 1a 7c 3c 3d 21 ce 13 be
       0.11222711 -0.16708122 0.04601679 -0.144341
000150 df 27 8c 3d 4b 2a 75 bd 2b a3 b7 ba fb a1 6f bc
       0.06843542 -0.059854787 -0.001401042 -0.0146260215
000160 a8 25 15 3e e3 07 27 be df f5 24 3e de 94 d2 3b
       0.14565146 -0.16311602 0.16109417 0.0064264378
000170 ea 6f 28 3e dd 7b 88 bd f7 af 2e 3d cf c0 9a bd
       0.16448942 -0.0666425 0.042648282 -0.075563066
000180 7e 8c c4 bd f3 70 19 3e 3d 6d 05 be 50 6e 1d 3e
       -0.09597109 0.14984493 -0.13029952 0.15374112
000190 c8 82 c0 bd 47 60 f0 bd c2 a4 89 3d 2c a5 0c 3d
       -0.093999445 -0.117371134 0.06720878 0.034337208
0001a0 4c ba 1e 3e 22 05 ff ba bc 82 0e 3e 0f a3 a2 3d
       0.15500754 -0.0019456486 0.13917059 0.07941257
0001b0 1b 1f b3 bd fa ea 9f 3d 12 2b 0b 3e 8e c7 36 3e
       -0.08746167 0.0780849 0.13590649 0.17849562
0001c0 8c 32 17 3e 42 e2 98 3d 94 c1 11 3c a9 65 5a bd
       0.14765376 0.0746503 0.00889625 -0.053319607
0001d0 4b 6c 09 be ca f5 40 3e 37 0e a3 3c f3 a7 1b be
       -0.13420217 0.18843761 0.01990424 -0.15200786
0001e0 24 55 2a be d7 c2 52 3e 24 e8 a0 3d 28 e7 be 3d
       -0.16634041 0.20582138 0.07856777 0.09321433
0001f0 e7 5a c0 bd 03 a1 1b be c1 6e a1 3c 80 e3 b8 bd
       -0.09392338 -0.1519814 0.019706132 -0.09027767
000200 d4 b5 4a bd 62 78 16 3e 3b 55 36 3d 8d c3 85 bd
       -0.04948981 0.1469436 0.044514876 -0.06531439
000210 d4 9e 90 bd 8d cd 8c 3d ff fa 2b be 65 a8 e9 bd
       -0.07061544 0.06875143 -0.16794966 -0.11409072
000220 3d be 9b bd 0f e6 cd bd c3 f9 f1 bd e5 15 2d 3d
       -0.076046444 -0.10053646 -0.118152164 0.04225721
000230 9d 61 99 3d 14 aa bb 3c 36 68 37 3d 00 cd 06 be
       0.074893214 0.022908248 0.044777118 -0.13164139
000240 5c b7 dc 3d e9 70 7d bd 81 25 3e bd d3 01 5b bd
       0.107771605 -0.061875258 -0.046422485 -0.053468537
000250 aa d3 13 be db c7 04 3e 94 25 28 be d9 c1 b7 bd
       -0.14436212 0.12966864 -0.16420585 -0.089725204
000260 64 3c 84 39 50 3a 21 bd 04 b8 d9 bd 18 2c 14 3e
       0.00025221996 -0.03936225 -0.10630801 0.14469945
000270 4c 6b d0 3d 6e e0 0b be c3 cc f9 bd ac ee 1c 3e
       0.10176715 -0.13659832 -0.12197258 0.15325421
000280 91 ca 6f bd ba 64 a5 3d a6 99 0a 3d 4f be a5 3c
       -0.05854279 0.08075853 0.033837937 0.020232348
000290 91 0e 2d be af 5c ef bd ea 68 f8 3d bd 0c 77 3d
       -0.16900088 -0.116876 0.12129386 0.060314883
0002a0 ba 7b 01 3d 43 4e 24 3e cb fb 13 be 39 75 57 bd
       0.031612135 0.1604548 -0.1445152 -0.052602027
0002b0 68 6e f2 bd 82 c9 a8 3d 91 7e b9 3d 55 15 08 be
       -0.118374646 0.082415596 0.09057344 -0.13289388
0002c0 49 20 c7 bd 7f e2 14 be ff 1c 1d be 6e c3 e8 bd
       -0.09722955 -0.14539526 -0.15343092 -0.113654
0002d0 37 50 26 be 19 a7 77 3c 22 1e 08 3d f9 c9 e1 bd
       -0.16241537 0.015115523 0.033231862 -0.11024851
0002e0 b0 36 d8 bc 9f 9c 9c 3d bf 75 97 3d 37 26 49 3c
       -0.026393265 0.076470606 0.07395505 0.012277178
0002f0 c8 a6 12 3e a3 ca 09 3e 55 d8 0b 3e f2 8a 27 3e
       0.14321434 0.13456206 0.13656743 0.16361597
000300 09 64 f5 bd 8d a3 27 be 33 26 f0 bd ff 99 fe 3d
       -0.11981971 -0.16370983 -0.11726036 0.12431716
000310 e9 f5 93 3c 93 26 76 bd 29 8b bc bd e5 91 d7 bd
       0.018061595 -0.06009538 -0.0920623 -0.10525874
000320 38 5a 1c 3e d4 8a c2 3d 84 9b e2 bd ad de 95 3d
       0.1526879 0.094991356 -0.110648185 0.07317863
000330 85 06 67 3d 28 29 a4 3c 38 ec ea bd 79 03 18 bd
       0.056402702 0.020039156 -0.114708364 -0.037112687
000340 b4 dd 02 bd ed 1e a5 3d 47 01 01 3e ed 28 af bd
       -0.031949714 0.08062539 0.12598144 -0.08552728
000350 26 8c d3 bd 92 53 d5 bd 44 36 a9 bd de c4 1c 3e
       -0.103294656 -0.104163304 -0.082623035 0.15309474
000360 79 57 a4 3c cd 4f cc 3d 02 30 31 3d 76 5f 45 bd
       0.020061241 0.09976158 0.043258674 -0.04818674
000370 c9 48 86 bc 2c 09 b4 3b d5 ef 13 be 4d 50 d2 3d
       -0.016392129 0.0054942574 -0.14446957 0.102692224
000380 de f4 d4 bc 5c 62 3d be d0 6f da 3d 0d 3a a1 3d
       -0.025995668 -0.18494552 0.10665858 0.078724004
000390 0e e6 2e 3d f7 92 44 3d c4 54 5e bd 58 75 85 3c
       0.042699866 0.04799172 -0.054280058 0.016291305
0003a0 17 f0 48 bb 47 eb e5 bd 18 cf db 3d ad 4d 70 3d
       -0.0030660683 -0.11226516 0.107328594 0.058667827
0003b0 b5 1d 30 3e df eb 21 3d d9 f5 f1 bb 75 31 f8 bd
       0.17198832 0.039531585 -0.0073840437 -0.12118808
0003c0 e3 ee 8a 3d 4a 01 04 3d a4 d6 63 3d 78 19 78 3d
       0.06783845 0.03222779 0.05562462 0.060571164
0003d0 d9 c2 06 3e e7 3a da 3d ad e2 90 bc 0a c7 74 bd
       0.13160266 0.10655766 -0.017686212 -0.05976013
0003e0 b5 45 22 3e 64 a4 ba bd 22 6c 2d 3e de 04 3d 3e
       0.15846904 -0.09113386 0.1693578 0.18458888
0003f0 b9 99 83 3d 2b 92 0c bd 8c c2 1f 3e 97 d1 a6 bd
       0.06425805 -0.034319084 0.15601557 -0.08145445

arith.constant7 f4 [3, 64]
000000 c2 d1 3c be 8c 67 d5 bd b2 fc f6 3d 73 6c 1e 3e
       -0.18439391 -0.104201406 0.120599166 0.15471058
000010 2d 83 88 3e 67 3b f0 bd ef 1d 25 3e 83 cc 89 be
       0.2666258 -0.1173008 0.161247 -0.26913843
000020 2c 4e 95 be 28 8e a3 bd c7 df 31 3e 2a dc 18 3e
       -0.29161203 -0.079860985 0.1737052 0.14927736
000030 d6 c3 84 3e 17 79 2d 3e 64 39 a1 be 5a c6 92 3e
       0.2593066 0.16940723 -0.31489098 0.28666955
000040 51 9d db 3d a2 bd 4c 3d 4f af 62 3e 6a ee 78 3d
       0.10723365 0.049985535 0.22137187 0.060774244
000050 85 20 8c be ac 6b 4f 3e 90 3e dd 3d f4 d6 35 bd
       -0.2736856 0.20255917 0.108029485 -0.04439445
000060 fd 97 96 3e f7 18 20 be 15 aa c6 3c 9a 83 a4 be
       0.29412833 -0.15634523 0.024251023 -0.32131654
000070 75 38 5d be c7 af 9a be c9 8d 94 be 96 3a 99 be
       -0.21603568 -0.30212232 -0.29014423 -0.2992751
000080 57 b6 df 3d a7 0e 83 3d 41 4b d3 bc c4 80 ec 3d
       0.109234504 0.06399279 -0.02579272 0.115479976
000090 b6 22 78 bc d8 c1 60 3c b7 90 14 3e 09 36 2e be
       -0.0151449945 0.013718091 0.1450833 -0.170128
0000a0 8f 32 cd bd 2b e1 0a bc b2 fa 07 bd 1c d4 09 be
       -0.10019409 -0.008476536 -0.033198066 -0.1345982
0000b0 63 4b e1 bd 9c 47 84 be 91 8f 80 bd 93 5a ec bd
       -0.11000707 -0.25835884 -0.06277383 -0.11540713
0000c0 b7 79 94 bd 79 e3 3b be 77 a8 1a 3d 1d 22 84 be
       -0.07249778 -0.18348493 0.037758317 -0.25807276
0000d0 c4 35 43 3e 40 d6 30 be 19 fd 91 bd 02 a4 96 3e
       0.19063479 -0.1726923 -0.07128353 0.29422003
0000e0 73 f4 33 3e 34 8b 13 be c0 5a 1a 3d 18 8f 2a 3e
       0.17573719 -0.1440857 0.037684202 0.16656148
0000f0 a2 e2 83 3e 66 0d 28 be 93 88 4f 3e a5 e8 4e 3e
       0.25758845 -0.16411361 0.20266943 0.20205934
000100 11 a1 6a be 67 ef 28 3e 73 ee b8 bd e7 96 33 3e
       -0.22913004 0.16497575 -0.090298556 0.17538033
000110 b8 de 93 3e 15 f7 94 3d b1 ad 5e be 6b b2 8b be
       0.28880858 0.0727369 -0.21745946 -0.2728456
000120 7b a3 8d 3c ed a3 91 bd 17 60 07 3e 7e ab 80 be
       0.017289868 -0.071113445 0.13220249 -0.25130838
000130 ba ad 93 be a5 9a 8b be a7 c2 8d be 50 0e 1e be
       -0.2884348 -0.27266422 -0.2768757 -0.15435147
000140 cd 45 9f 3e dc a8 3f be d7 49 52 be 33 dd 81 bc
       0.3110794 -0.18716758 -0.2053598 -0.015852546
000150 b2 02 05 bd 21 6a 2f be e8 c3 8a bd f6 21 7b be
       -0.032473274 -0.17130329 -0.067756474 -0.24524674
000160 ca 0f 9a be 9c b8 00 3e 43 45 6f 3d 8a 91 81 be
       -0.3009017 0.12570423 0.058415662 -0.2530635
000170 28 6d ec bd 94 85 99 be db bc 54 3d cd da 95 3d
       -0.115442574 -0.29984725 0.05193792 0.073171236
000180 fe ee b5 3d fa 80 86 3e e4 93 bc bd e3 d5 b9 3c
       0.08883475 0.26270276 -0.092078954 0.022684997
000190 f8 b5 01 3e 99 36 3b be 36 0e 34 be 4b 51 4f be
       0.12667072 -0.18282546 -0.17583546 -0.20245855
0001a0 83 f2 8f 3e 89 a5 77 3e e2 95 2c 3e 5f c7 02 3d
       0.2811471 0.2418424 0.16854051 0.031928416
0001b0 f2 91 cc 3d d6 7b 85 3e 33 f0 f3 bc b5 92 b5 3c
       0.09988774 0.26071042 -0.029777622 0.022164682
0001c0 81 9f 6d 3e 3f 69 81 be db 48 8f 3e ac d7 b1 3c
       0.23205377 -0.2527561 0.27985272 0.021709286
0001d0 02 b3 65 3d 8e 35 9a 3d 6f b6 66 be e1 ce 4f be
       0.05607892 0.07529746 -0.2253053 -0.20293762
0001e0 a7 79 3e 3e 68 20 8c 3c 2c 29 13 be 2d 39 00 bc
       0.18601094 0.017105296 -0.14371175 -0.007826132
0001f0 27 8a 7e bd 9d 1e 0e be 65 d4 83 3e 6c 53 61 be
       -0.06214347 -0.13878866 0.25747982 -0.22004479
000200 3a d3 9b 3e bc 2b 03 be 81 ef fb bc 82 7b 4d bd
       0.3043459 -0.12809652 -0.030753853 -0.050166614
000210 48 01 fe 3c 04 1a 63 3e 34 7f a3 bd b4 59 73 3e
       0.03100647 0.22177893 -0.079832464 0.23764688
000220 1b aa 9c be be 13 93 be 80 93 dc 3c c6 2b 49 3e
       -0.3059853 -0.28726 0.026925802 0.19645604
000230 23 45 3b 3e 32 f2 23 3e 4c bb 50 3e 41 69 84 be
       0.18288092 0.16010359 0.20383948 -0.25861552
000240 cb b7 ea 3d fb f5 96 be 1c fa 38 3e ab 25 00 bd
       0.11460837 -0.29484543 0.18064159 -0.031285923
000250 6f 93 05 3d 89 7a 7f be 47 f6 e9 3d 75 1f 33 be
       0.032611307 -0.24949087 0.11423927 -0.17492469
000260 e0 90 ea 3d 22 1b 9b 3e 24 9a b9 bd 8e 26 32 be
       0.11453414 0.30294138 -0.09062603 -0.1739752
000270 b3 7b dd 3d e3 e8 bd bd f1 8e 95 3d f7 45 81 bc
       0.108146094 -0.09272935 0.073026545 -0.015780432
000280 6a 5d 5e be 5e 06 7f be ad c9 81 3e 3c ac f2 bc
       -0.21715322 -0.24904773 0.2534918 -0.029623143
000290 1d b1 8d 3e cd 22 3a 3e c7 e0 98 bc 26 d5 3a 3e
       0.2767419 0.18177338 -0.01866187 0.18245372
0002a0 3b fd 38 be 06 9a 6b be 94 a3 90 3b 1a 79 69 3e
       -0.1806535 -0.23007974 0.0044140313 0.22800103
0002b0 bf 55 01 3e 41 59 e8 bc 21 52 31 3e 00 64 38 3c
       0.12630366 -0.028362872 0.17316486 0.011254311
0002c0 64 90 3e 3e 27 53 4d 3c c9 17 cc 3d b8 5b 88 bc
       0.18609768 0.012532032 0.09965474 -0.016645297
0002d0 a8 01 78 bb e2 f7 91 be 2a a3 80 bd cc 33 9b be
       -0.0037842784 -0.28509432 -0.06281121 -0.30312955
0002e0 e4 7c 9c bd 22 8f c4 b9 ae 7d 38 be f2 c3 90 3d
       -0.076410085 -0.00037490675 -0.18016693 0.070686236
0002f0 26 5a 65 3e 00 3e 80 3e c1 3d 5c 3c 1e fd 86 bc
       0.2239767 0.25047302 0.013442458 -0.016478118

arith.constant8 f4 [64, 2944]
000000 53 12 83 3d 65 21 c9 bc f5 44 90 3c d7 ad 1a bd
       0.063999794 -0.024552057 0.017611006 -0.037763443
000010 ee 5a e9 bc 90 57 4f bc ff 40 0a bd 8c 06 ba 3c
       -0.028485741 -0.012655154 -0.03375339 0.0227082
000020 03 6f 28 bd fc 6b cd 3c c5 df 00 3d a7 c8 42 3c
       -0.041121494 0.025075905 0.031463403 0.01188866
000030 da 9a c3 3b 0b d9 aa 3b f2 a4 b1 3c b9 36 4d bd
       0.0059693875 0.005213862 0.021685097 -0.050101016
000040 33 04 9b 3c d1 b2 d7 3c 9f 6c d8 bc a7 c1 db bc
       0.0189229 0.026330383 -0.026418982 -0.02682574
000050 9a 65 04 bd 79 b9 da bc 9d 6a 31 3b 76 e3 59 3d
       -0.032323457 -0.026699768 0.0027071603 0.05319544
000060 7c 3a d8 bc 5d b7 d3 bb 27 d3 19 3c 4e 1a 1a bd
       -0.026395075 -0.0064610676 0.009388722 -0.037622742
000070 67 eb 15 3d 42 b3 65 3d 4b 30 ba ba 2c cb d6 3c
       0.03660145 0.056079157 -0.0014205066 0.026219927
000080 0a af ef 3c e1 2c 5c 3c 32 41 04 3c 56 57 7c 3c
       0.02925827 0.013438434 0.008072184 0.015401682
000090 51 dd 36 ba 9f 29 9d 3c f0 b5 5f bc ca 97 c3 bc
       -0.0006975728 0.019184886 -0.013654217 -0.02387609
0000a0 59 ab bc bc ec 5e e5 bc bd fd 11 bd 14 5f a4 bc
       -0.023030924 -0.027999364 -0.035642374 -0.020064868
0000b0 f8 2c 91 3c 1b 4a 6e 3b f6 16 89 3d 50 8a 8a 3c
       0.017721638 0.0036360088 0.066938326 0.016911656
0000c0 2a 66 bb bd 76 b4 95 3b c1 93 29 bd 2c 0f 40 bd
       -0.091503456 0.0045686318 -0.041400675 -0.04688947
0000d0 62 66 25 3c 9b 28 42 bc 24 5e 95 bc a5 05 85 bc
       0.010095211 -0.011850501 -0.018233366 -0.016238043
0000e0 b3 6c 76 3d 61 19 22 bd d9 0b c8 bb e6 c2 85 bb
       0.060162257 -0.039574984 -0.006104928 -0.0040820716
0000f0 1b 2a 46 3d b0 00 ea bb ee f1 90 3d a7 3f 3a 3d
       0.04838 -0.0071411952 0.070773944 0.04547086
000100 ac d2 32 3d 52 0f 85 3c ae de 61 bd ba 4f af bc
       0.043657944 0.016242657 -0.055144005 -0.021400321
000110 c6 96 fb 3b e4 a2 b8 bc 15 70 5e 3a dd 26 2f 3d
       0.0076778857 -0.02253861 0.00084853295 0.042761672
000120 34 0f 9e bc 25 bf 93 3b cf 78 6b 3a 5e 47 5a bc
       -0.019294359 0.00450887 0.00089825405 -0.013322679
000130 c7 35 78 bc d5 7a 44 3d e1 0a 5e bc 72 68 fe bc
       -0.01514954 0.047968704 -0.013552398 -0.031055663
000140 63 91 de 3c d8 df 57 bd 27 e7 28 bc 1e 20 41 3c
       0.027168935 -0.05270371 -0.010309017 0.0117874425
000150 56 1c 9f 3b bd 71 2d bb cd b2 10 3d 72 76 4b 3d
       0.004855673 -0.0026465498 0.035326768 0.049673505
000160 18 55 6a 3c 01 7a ff bc ac d4 83 bc e7 dd 88 bb
       0.0143025145 -0.031186106 -0.01609262 -0.0041768434
000170 2f 48 ff 3b 01 8b 10 bb fc 28 bb bc a5 13 09 bc
       0.0077905874 -0.002205551 -0.022846691 -0.0083665
000180 b2 76 0f 3d 5a c4 63 3c e1 b4 16 bd c3 1a 02 3d
       0.035025306 0.013901794 -0.036793593 0.031763803
000190 c5 f4 05 3d 34 09 dc bb 1c 26 d4 3c ac 6e 06 bd
       0.032704134 -0.0067149643 0.025897078 -0.03282039
0001a0 3a 09 86 3d 21 41 de bc 34 9d 1a bd c3 05 4b 3c
       0.065447286 -0.027130665 -0.037747577 0.01239151
0001b0 ce f8 5f bd 46 94 e9 39 39 54 23 bc f8 d5 00 3d
       -0.054680638 0.00044551695 -0.009968811 0.031454057
0001c0 6e 8b c9 3c a3 d2 17 bc 61 5d 15 bd e2 08 b0 3c
       0.024602618 -0.009266528 -0.036466006 0.02148861
0001d0 1b ab 29 bc 38 cc 4a 3d 72 bd f3 3c af e6 10 3d
       -0.010355736 0.049511164 0.02975342 0.035376247
0001e0 98 8d 93 bc 5a 44 af bc 7e 1c bf 3b e5 a3 fb bc
       -0.018011853 -0.021394897 0.005832254 -0.0307178
0001f0 0e 64 2a 3d ff e0 2d 3d 12 dc 4f bc 2b f4 b1 3a
       0.041599326 0.0424509 -0.012686746 0.0013576796
000200 7f f8 82 3d ac 09 0a bd 4e 71 49 bd 77 ae bf bc
       0.06395053 -0.03370063 -0.04918032 -0.023398621
000210 6d 90 1a bd c1 d4 d1 bb 3e ef f2 bc c3 e2 5e bd
       -0.03773539 -0.006403536 -0.029655095 -0.054415476
000220 d1 27 b8 3c 2e 5f d5 3c 97 48 ad bc 26 60 5d 3b
       0.022479923 0.026046362 -0.021152778 0.0033779233
000230 1d 4e 37 3b 8d b9 45 bc 73 4e b8 bc 5e ea 4d 3c
       0.0027970143 -0.012068165 -0.022498345 0.0125680845
000240 c5 12 a7 bc 33 45 f3 ba f8 cf 11 3d 9e 93 4b bd
       -0.020394692 -0.0018560052 0.035598725 -0.049701326
000250 b9 fe b7 3c 50 d5 29 bc 00 12 01 bd 30 a6 d6 3c
       0.022460328 -0.010365799 -0.031511307 0.026202291
000260 0a ea 04 3b 36 90 21 bd 6f 83 91 3c e8 f5 ae bc
       0.00202811 -0.03944417 0.017762868 -0.021357492
000270 df db 1a bb a4 99 03 bc 28 da da bc 81 df a2 3c
       -0.0023629589 -0.008032236 -0.026715353 0.019881966
000280 30 00 ca 3c c9 0f 32 3d 70 f6 93 3c de 6c 5a 3d
       0.024658293 0.043472085 0.018061846 0.05332648
000290 1e 78 a5 bc 68 ce d5 3c 1b d8 31 3b a3 b7 e8 3c
       -0.020198878 0.026099399 0.0027136866 0.028407877
0002a0 de 59 44 3c 8c e9 f8 bc 5e a7 4b 3d f6 2b 1e bb
       0.011984317 -0.030384801 0.04972016 -0.002413509
0002b0 b4 7c 90 bc 8d da 88 bb 1a 8f 43 3b ad 1a 0b bd
       -0.017637588 -0.004176444 0.0029839934 -0.033960987
0002c0 da 3b 95 bd 78 1f 05 3d 0e d7 53 3c 1c c3 3b bd
       -0.072868064 0.032500714 0.012929691 -0.045840368
0002d0 b1 b7 75 3c a9 ad 20 bd db a8 2c 3d ab 28 1a bd
       0.014997409 -0.039228115 0.04215322 -0.03763644
0002e0 02 18 a9 3d 87 b3 ba 3c ce 2f a8 bc 77 78 c8 3c
       0.08256532 0.022790683 -0.020530608 0.024471505
0002f0 5d e5 30 3d 00 d0 e7 3c fc 99 15 3d 39 71 0c bd
       0.043187488 0.028297424 0.036523804 -0.034287665
000300 ce 15 db bc dc 8a c4 bc 2f 1b 64 bc f9 08 1d 3c
       -0.026743796 -0.023991995 -0.013922497 0.009584659
000310 5a 0e 33 bd 71 31 ed bc 48 20 db 3b 6a 23 15 3d
       -0.04371486 -0.02895424 0.006687198 0.036410727
000320 6d d4 a0 bc be 38 9a bb da 80 01 3d f2 27 73 bd
       -0.019632543 -0.004706471 0.031617023 -0.059364267
000330 74 27 df bc 2e 30 6c 3b d0 d0 53 bd 49 1c e7 ba
       -0.027240492 0.003603946 -0.05171281 -0.0017632331
000340 3f 9d d8 3c a5 6e f6 bc b5 ca 3d bc 4d 95 d7 bc
       0.026442168 -0.030082056 -0.011583974 -0.02631631
000350 af d0 6f 3d a1 03 35 bd 19 e3 83 bb b3 30 8a 3b
       0.058548626 -0.044192914 -0.004024875 0.004217231
000360 8d 37 cf bc ac 25 1d bd d0 41 19 bc 26 43 31 3c
       -0.025295043 -0.038366005 -0.00935407 0.010819232
000370 b4 0f 97 3b 75 6d 32 bd c2 25 35 bd 5a 1e 59 3d
       0.0046100263 -0.043561418 -0.04422546 0.05300746
000380 81 6a 3d 3d 57 91 df 3c 9d c0 57 bd 06 29 b6 bb
       0.04624415 0.027290983 -0.052673925 -0.0055590896
000390 8e 48 8a 3a 55 d5 61 3c 55 1f b0 3c 3a 44 c4 3b
       0.0010550187 0.0137837725 0.021499315 0.0059895786
0003a0 5c 1d 84 3d 7b 27 fd 3c 3c 1e a7 3c b8 82 50 3d
       0.06450912 0.030902615 0.020400159 0.050905913
0003b0 9e 60 71 bc d9 01 44 bd 06 79 57 bc 34 ef ac 3b
       -0.014732508 -0.047853325 -0.013151413 0.0052775387
0003c0 fa 1c d9 3c 50 13 a4 3c f5 06 a9 3c 37 00 ad bc
       0.026503075 0.02002874 0.0206332 -0.021118267
0003d0 2e 25 a6 3c a3 d0 7c 3d 1e fc 49 3d bd 4a 26 bd
       0.0202814 0.06172241 0.049312703 -0.04059862
0003e0 a4 19 16 3d 90 c9 0f bd 1a fd 04 bd 42 8c 79 3c
       0.036645547 -0.035104334 -0.03246794 0.015231194
0003f0 89 7a 7c bc ea ba 86 bc b0 4e 9e 3c 35 10 59 3c
       -0.015410074 -0.01644655 0.01932463 0.013248493

arith.constant9 f4 [3]
000000 55 1c 95 3b a9 7a d9 3c f6 b7 25 bd
       0.0045504966 0.026547747 -0.040458642

arith.constant10 f4 [64]
000000 b3 24 e8 ba 53 9a 90 3b 6c 69 c4 bb 7c 65 94 3c
       -0.0017711133 0.004412928 -0.0059940126 0.018114798
000010 36 e8 a4 bb 36 71 9c ba 62 85 1e 3b 35 ec e7 3a
       -0.0050325645 -0.0011935595 0.002418839 0.0017694297
000020 ce cb 55 bb 49 b1 54 3c c3 6e da bb 2f b8 e6 3a
       -0.0032622698 0.012981721 -0.006666036 0.0017602498
000030 c0 76 e6 b9 f3 4f 3e ba 12 dd 95 bb 6c b4 b9 3b
       -0.00043957494 -0.0007259838 -0.004573473 0.00566726
000040 d9 f1 90 3b 22 e1 ab 3b fb b0 8f 3b 9f a6 c4 bb
       0.0044233617 0.005245344 0.0043851114 -0.006001308
000050 08 24 8b 3b ec 63 c5 3b 2d 1b 8c 39 7e bd c4 bb
       0.0042462386 0.0060238745 0.00026723128 -0.0060040345
000060 6f 4c 1d 3b 0a e7 26 bb cf 8c 8b 3c 74 f4 90 bb
       0.0024001857 -0.00254673 0.017034916 -0.0044236723
000070 c0 99 0a bc 17 ed 04 ba 34 35 af ba df 7a cb 3b
       -0.008459508 -0.00050707295 -0.0013367296 0.0062097157
000080 f9 d3 10 3c 02 78 55 3b 6c 26 db b9 83 ae 63 3c
       0.008839601 0.003257275 -0.00041799562 0.013896587
000090 d2 67 e3 bb b1 74 f5 ba f4 ae 8c 3b f1 77 99 3b
       -0.0069398666 -0.0018726793 0.004293317 0.0046834876
0000a0 16 07 7f 3b 4d 0f 9b 3a f4 ea 30 bb 37 6a fb 39
       0.0038914136 0.0011830122 -0.0026995512 0.00047953587
0000b0 08 7e c9 b8 ba 92 ca bb 16 52 30 bb b3 b5 b0 ba
       -9.607902e-05 -0.006182042 -0.0026904396 -0.0013481885
0000c0 24 0f 49 3b 18 1c 05 3b b0 03 c5 3b 6e c6 52 3b
       0.003067919 0.0020310935 0.0060124025 0.003216173
0000d0 3e a0 12 38 75 33 c5 bb fc 35 8b bb 6c ae b2 3b
       3.495835e-05 -0.006018097 -0.004248379 0.0054529216
0000e0 7a 65 23 3c 73 07 3a 3b d3 89 31 3c b8 a7 e1 bb
       0.009972924 0.0028385788 0.0108360825 -0.0068864487
0000f0 d8 c7 a9 bb d6 74 5a bb 66 85 66 3b 92 2b 62 3b
       -0.005181294 -0.00333338 0.0035174727 0.0034510833
