game/app/src/main/assets/model.tflite (tflite, 863684 bytes, 8 tensors)

arith.constant f4 [128]
00000000: 7a43 a1bb 896b bdbc d5b3 84bb 953c 28bc
00000010: 98bc 8ebc 8a73 4abc c420 d23c 65c8 1bbc
00000020: 340f 613b 1ca2 3dbc 840f 3e3c e6d3 69bc
00000030: 7ebe c5bc b4d7 7cbc 4173 fbbb fc6f 803b
00000040: 7e24 053c 9506 1fbc cc99 023b ecd8 f73b
00000050: 9577 423b 52bd 8dbc 61be 623c fbf2 6dbc
00000060: e4d8 b33c 0dc8 443b 757f 7c3c bd64 063c
00000070: c3a6 cdbc 8e26 dfbb 142a 99bc 6839 50bc
00000080: 3c7a f03c 9737 213c 0e65 8abc e1dd 92bc
00000090: d082 4c3c e803 70bb f21d f93a 83ee 9bbc
000000a0: 857f a0bc 212a 6bbc f92b 473c 5809 893c
000000b0: ee93 2a3d c55d 63bc a032 b4bb 391d 4c3b
000000c0: 771a 783b c60b e0bc d606 013c c539 983c
000000d0: 665f a6bc 06f0 8fbc ffe1 9cbb fa56 66bc
000000e0: 7970 c4bb ed83 28bb ff95 963b aae3 e13b
000000f0: 966d 483b 8b0a 06bc 6404 c3bb 3ee6 49bc
00000100: 4576 f43c 2728 1bbc 16fa 8ebc 98ca 33bc
00000110: 4f7d 00bd 9173 2fbc e3de e13b 3a8e 6c3c
00000120: 67e4 c7bc ed58 c63c 5d56 3f3c b08c 1bbb
00000130: eebe 2dbc c4b0 533d ed13 88bb 9b86 dfba
00000140: c5a5 5dbb fe07 893c afa9 f0bc bf05 98bb
00000150: 6d0a 26bc d4b2 bbbc cdce 6b3c aa3a 9cbc
00000160: 9b25 173c c596 01bc 0a5d 5cbb 957d ff3c
00000170: 4e2b 0e3d 2f58 e5bc ec79 23bc 318c c43b
00000180: 49b0 89bc 2ba5 b1bc b87a b7bc 89e6 2c3b
00000190: dbe1 8cbc 6431 a2bc 1f80 02bd 40f1 8e3b
000001a0: 6d17 a4bb 12d2 153d d3fd 1cbc 47f9 433c
000001b0: 428e 843c 1287 75bc 433e c13c defb 7d3c
000001c0: 0efc 1dbc 18c0 b3bb 4886 8bba b466 1f3c
000001d0: 909e f63a 8828 083b 54b5 0a3c bcb3 67bc
000001e0: f82a 313c 958a 82bc 91e5 073d 4d84 fa3b
000001f0: a362 52bc 46dd a3ba 9a80 00bc d12a e8bc
-0.004921374 -0.023122566 -0.004049758 -0.01026835 -0.017423913 -0.012356648 0.02565039 -0.009508227
0.0034341337 -0.011574294 0.011600379 -0.014271712 -0.024138685 -0.015432287 -0.0076736514 0.0039195996
0.008126376 -0.009706159 0.0019928096 0.007563701 0.0029673327 -0.017302189 0.013839335 -0.014523263
0.021954007 0.0030026466 0.0154112475 0.008202729 -0.025103932 -0.006810016 -0.018696822 -0.012708999
0.02935516 0.009839914 -0.01689389 -0.017928066 0.01248236 -0.0036623422 0.0019006117 -0.01903463
-0.019592056 -0.014353306 0.01215648 0.016728088 0.041644983 -0.013877337 -0.005499199 0.0031145348
0.003785757 -0.027349364 0.007875165 0.018582234 -0.020309161 -0.017570507 -0.004787683 -0.014058823
-0.005994853 -0.00257134 0.0045955176 0.0068935947 0.0030582896 -0.008181225 -0.005951451 -0.01232296
0.029841552 -0.009470022 -0.017453235 -0.010973595 -0.031369504 -0.0107087055 0.0068930252 0.014438206
-0.024400903 0.024212325 0.011678305 -0.002373498 -0.010604603 0.05168225 -0.004152766 -0.0017053665
-0.003382073 0.016727444 -0.029377786 -0.004639357 -0.010134322 -0.02291242 0.014392567 -0.019070942
0.009225274 -0.007909481 -0.0033624792 0.031187812 0.034709267 -0.02799615 -0.009977799 0.0059981574
-0.016807692 -0.021685204 -0.022397384 0.0026382527 -0.01719754 -0.019798942 -0.031860467 0.0043622553
-0.0050076754 0.03657729 -0.009582001 0.011961288 0.016181115 -0.014985817 0.023589259 0.015501944
-0.009642614 -0.005485546 -0.0010644877 0.009729076 0.0018815566 0.0020776112 0.008466084 -0.014141973
0.010813467 -0.015935222 0.033177916 0.007645166 -0.0128409 -0.0012501858 -0.007843161 -0.028340729

arith.constant1 f4 [64]
00000000: a7c3 5e3c 322d efbc ad90 a4bc c956 4fbc
00000010: 1ab0 ef3c bb63 acbc cffa f43c 9429 c7bc
00000020: 7b53 d0bb dba6 0c3d d6fe 9f3c e60d fa3a
00000030: 8b51 dbbc 174f 0dbd 6343 46bc bb46 223c
00000040: 984c 513d 36b5 6a3d 9d12 453b d8da 053c
00000050: e8a2 fc3b c6e9 f2bc 73b2 1ebd 36be 203d
00000060: 1573 f6bc d04a ebbc 28f7 b63b 6f13 143d
00000070: 5eed 9ebc 8657 89bc 8613 8f3d d07b e93c
00000080: de26 543c 7934 0c3d 70a8 c6bc e2fd a43c
00000090: eb1a 143d 0935 94bc 0115 333b d25f 93bc
000000a0: e680 423b be67 5f3a 7e4f e1bc 53ba f93b
000000b0: fdd5 053d 1143 debc 70ca bbbc a5b9 ef3c
000000c0: f15e 8cbc 1f9c 7bbb 68cd df3c b6e7 bbbc
000000d0: b152 13bd 02bb 163c f39d 0fbd ec93 6d3c
000000e0: dd73 e53c 2392 3dbc 3c44 413d 4114 5c3c
000000f0: a25e 5e3c 374a 523d 34b7 0a3d a5a8 86bc
0.013596452 -0.029196355 -0.020088518 -0.012654969 0.029258776 -0.021043649 0.029904751 -0.024311818
-0.006357608 0.034338813 0.019530695 0.0019077628 -0.026772281 -0.034499254 -0.012101027 0.009904559
0.051098436 0.057301722 0.0030070909 0.008169852 0.0077098496 -0.029652487 -0.0387444 0.0392439
-0.030084172 -0.028722197 0.0055836625 0.036151346 -0.019400295 -0.016765367 0.06986146 0.028501421
0.01294872 0.03422973 -0.02425024 0.020140592 0.036158483 -0.018091695 0.0027325752 -0.017990027
0.002967888 0.00085222337 -0.027503725 0.0076210885 0.03267478 -0.02713159 -0.022923678 0.029263327
-0.017135115 -0.0038392616 0.027319625 -0.022937637 -0.035967533 0.00919986 -0.03506274 0.014500599
0.02800935 -0.011570486 0.047184214 0.013432563 0.013572367 0.051340308 0.033866122 -0.016437838

arith.constant5 f4 [128, 1, 3, 64]
00000000: a6c9 803c 83bd 63bd e287 b53c 4499 b7bd
00000010: 46bc d7bd 65ce 0bbb 3335 61bd c2af fbbb
00000020: ba8a d13d 6aaf b33c db48 b9bd fe4a b33d
00000030: 7518 323d e0c3 c63b bbfe a33d 48e9 823d
00000040: 0dea cebc 6b61 80bd 8597 a7bd c3fd 00bd
00000050: 80e8 51bd f9fe 92bd c0aa 7ebd dcce 7abd
00000060: 20f5 82bd 3f46 73bd 4bfa 8ebd b50c e9bc
00000070: 36fa c5bd 5619 9c3d 4e50 7a3c 5814 91bc
00000080: 160b b4bd bcec 243c fc4e 3bbd d011 45bd
00000090: 1ac6 9bbd b48f deb9 bd08 903d 709f 65bc
000000a0: 0c07 663d 02be 95bd 337e e5bd af73 c63d
000000b0: 817a 6f3c cae8 013d d36e a6bd 6196 44bd
000000c0: 0158 10bb d9e6 d0bd 708e c3bb be8a a5bc
000000d0: 48cc aabd 1b5e c63d 71b2 b63c eadb 56bd
000000e0: 21c2 ce3d 8998 5c3d c20c 823d f047 80bd
000000f0: 5b1b 8cbd 09a3 4f3d 3d16 663c adc7 b7bd
00000100: af95 4d3d 2af4 9e3c 27ae 453d 0b24 a43c
00000110: 5eec 21bd 1739 c3bd a5a3 96bd d550 a6bd
00000120: ab44 923d c23e aebd 34a5 053b 8f04 c93d
00000130: d279 663d 68ac 7bbd 4cd5 0ebd a01d 433d
00000140: b763 c83d 3ee6 56bd b0e0 89bd ccf4 543a
00000150: 105d cd3d af5e b43d c697 043d ab1c e8bc
00000160: b668 b13d 19bb f03c 57e9 a6bd 4df6 bbbd
00000170: d454 bb3d ca78 bcbc 0fe3 9dbd 27fc b13d
00000180: 36fd 933d 34a4 bcbd 73a9 cfbd 369b 093c
00000190: 2876 60bc 476a ce3d 7b87 c6ba 35c8 b13b
000001a0: ab55 41bd c968 8c3d 76f8 a1bc 3af2 013b
000001b0: a569 df3d ce06 5d3c 8cd3 803d a43c 733d
000001c0: 336f 89bb 1b83 7ebd e762 873c 8c32 6fbd
000001d0: fc50 9fbc 65bb e53c 60c2 743d 060d 4c3c
000001e0: 8a0e ee3a 6219 01bd 25b6 ca3d f18b 863c
000001f0: 4574 663d 1b4f 4a3d 931a 2b3c 09b3 10bd
00000200: 1efa fd3c e09d 6fbb 3aaa cebb 2b1e 523d
00000210: 98be b3bd a1c7 c3bc 814a a2bd da54 2f3d
00000220: d6a3 1cbd 7568 abbc a49f 48bd 62bb 1d3b
00000230: e59a 11bd 59c2 6f3d cac7 c2bc 3182 7dbd
00000240: 7a33 d1bd bad3 dbbd 8e22 8a3b 634e 393d
00000250: 401a 013d c017 7d3d ce04 063d 1b7a 7a3d
00000260: 426e 963d bdd0 753c 535d a1bd 4bc6 7ebd
00000270: 7e5a 993d d86d e13c 7131 8d3c 9a5c c83d
00000280: 8f1b 6f3d 5368 7abc 136e 083d 08e6 10bd
00000290: cb7b d03d e93f 5bbc 95fe aabd 4a90 62bc
000002a0: cc16 9cbd 7df3 78bd 76e0 a63c 4bef a1bb
000002b0: c748 f2bb 023d 833d ab21 e23c c275 fb3c
000002c0: efa3 c3bd da14 5d3d 4304 793b c440 9e3d
000002d0: 6c18 83bb 6cef 463d 71f5 e4bc 87cf a3bd
000002e0: 3ab4 9d3d c73a f53b e8d0 be3d 23a1 a23b
000002f0: 22ec 2a3d a6d9 0bbd e120 1e3c 7133 7c3d
00000300: 4692 d43d 53c9 dfbc d972 c43c 291f 513d
00000310: c71b 15ba 7985 9bbd b541 44bd 8741 5cbc
00000320: c670 a9bd 3937 c23c 0924 bdbd 5136 93bd
00000330: ef00 b33d fdb8 773d 7431 49bd b052 2bbd
00000340: daef eebd 765e 1dbe a125 493d ec23 363d
00000350: e3aa c73d 6099 a33d b034 d9bd 830f 0abd
00000360: ed94 29bc f852 a13d d88e 14bd 8ec8 47bc
00000370: 10a5 603d 21d2 043d 5e7a f2bd 4439 eebd
00000380: 210f 9db8 ad00 91bd 7380 cfbc d77e 09bd
00000390: 36a2 433d 5d77 8c3c 6d79 2abd 10cd 6a3c
000003a0: 38cd d5bd 14e9 8b3d 37f0 fe3c f0e3 5b3d
000003b0: cae2 8e3d 481a 5dbc dcac a5bc 76b7 8a3d
000003c0: c672 c9bd 13cd 0ebd c59d 7d3d de8b ca3c
000003d0: 6eea 9dbc 8dcc 59bd 3f10 e33d 854f 47bc
000003e0: 8efb d139 ec2c ae3c 2d56 c8bd b372 81bd
000003f0: 6ac7 013e ff79 8fbd 2381 f9bb 6fdc 2cbd
0.015721153 -0.055600654 0.02215952 -0.0896478 -0.10533957 -0.0021332738 -0.054982375 -0.007680864
0.10231538 0.02193423 -0.09047099 0.08754538 0.043480355 0.0060658306 0.0800757 0.06392151
-0.025258088 -0.06268581 -0.08183197 -0.031492006 -0.05124712 -0.071775384 -0.06217456 -0.061232433
-0.0639441 -0.059393164 -0.06981333 -0.028448442 -0.096668646 0.0762202 0.015277935 -0.017709896
-0.08791177 0.0100662075 -0.045729622 -0.04811269 -0.07606144 -0.00042450207 0.07032917 -0.014015064
0.056159064 -0.07311632 -0.11205711 0.09690034 0.01461661 0.031716146 -0.08126607 -0.047994975
-0.002202511 -0.10200281 -0.0059679076 -0.020207759 -0.08339745 0.09685918 0.022301884 -0.05245582
0.10095621 0.053856406 0.063500896 -0.06263721 -0.06841155 0.05069259 0.014043388 -0.08973632
0.050191578 0.019403536 0.048261788 0.020036718 -0.039532058 -0.095323734 -0.073554315 -0.08120886
0.071420036 -0.08508064 0.0020392658 0.098153226 0.05626852 -0.061443716 -0.034871385 0.047635674
0.09784644 -0.05246567 -0.06732309 0.0008123636 0.10027516 0.08807122 0.032371305 -0.028333982
0.0866255 0.02938609 -0.08149975 -0.091778375 0.09147039 -0.023006815 -0.077093236 0.08690672
0.072260305 -0.09211007 -0.10139742 0.008398822 -0.013700046 0.100788645 -0.0015146577 0.005425478
-0.04720084 0.06855924 -0.019771796 0.0019828216 0.10908822 0.013490392 0.06290349 0.059384003
-0.004194164 -0.06213675 0.016526653 -0.058397815 -0.019447796 0.028043458 0.059755683 0.012454277
0.0018162292 -0.031518348 0.098980226 0.016424151 0.056263227 0.049391847 0.0104433475 -0.03532699
0.031003054 -0.0036562607 -0.0063069137 0.0512983 -0.08776587 -0.023898901 -0.07924367 0.04280553
-0.038242184 -0.020923832 -0.04898037 0.0024067988 -0.03554811 0.058534954 -0.023776907 -0.06189174
-0.102148965 -0.10733743 0.004215545 0.04524077 0.031519175 0.061790228 0.032719426 0.061151605
0.07345249 0.01500338 -0.07879128 -0.062200826 0.07487963 0.027518198 0.01723549 0.09783287
0.05837589 -0.015283662 0.0333081 -0.035375625 0.10179862 -0.013381937 -0.08349339 -0.0138283465
-0.07621536 -0.060779084 0.020370703 -0.004941856 -0.0073939296 0.06408121 0.027603945 0.0306958
-0.09552752 0.053974964 0.0037996925 0.07727197 -0.004000714 0.048568174 -0.027949067 -0.07998567
0.07700391 0.0074838134 0.093171895 0.0049630567 0.0417291 -0.034143113 0.009651394 0.061572496
0.10379462 -0.027317679 0.023980545 0.051055107 -0.0005688038 -0.07593817 -0.047914226 -0.013443357
-0.08273463 0.023707973 -0.09235389 -0.071880944 0.087404124 0.060479153 -0.049119428 -0.041826904
-0.11666842 -0.15368065 0.04910815 0.04446785 0.09749391 0.07988238 -0.106057525 -0.0337062
-0.010350448 0.07877153 -0.03626904 -0.012193812 0.054844916 0.032426957 -0.11839746 -0.11632016
-7.489161e-05 -0.07080207 -0.025329804 -0.03356823 0.04776212 0.01714676 -0.041619707 0.014331117
-0.10439533 0.068315655 0.031120403 0.053684175 0.0697685 -0.0134950355 -0.020224027 0.06773274
-0.098363444 -0.034863543 0.06191804 0.024724897 -0.019276824 -0.05317359 0.11087083 -0.012164955
0.0004005101 0.021261655 -0.09782062 -0.06320705 0.12673727 -0.07005691 -0.0076142712 -0.04220241

arith.constant6 f4 [64, 1, 3, 6]
00000000: 1ad0 dc3d 1b45 10bd f104 4b3d 3a5c 363e
00000010: bce0 e2bd d352 113e 49c0 c73d 6d82 6a3c
00000020: a8b2 df3d 90d2 3c3e d756 ebbd af27 d23d
00000030: afa1 573a b62f b33d 7221 b03d 6f39 7f3d
00000040: cf2f 253e 8256 72bd 8f38 823d 42c9 d83d
00000050: adf0 a43d a8dd ffbc 285d b13d 32b2 09be
00000060: 20ee 843b d204 353b 034c c33d fe2f 803c
00000070: 9dbe 5b3e 2cd7 5b3d 7d0b a73d 7bcf 103d
00000080: c058 493d 2368 bebd bdbb 093e 5604 e63d
00000090: 1e28 e3bd 542c 143e 97c7 0f3e 5f3f 193d
000000a0: 982b c9bc 6667 d43c 1273 14bd ff66 e63d
000000b0: dfe4 babc 29db fb3d 6f12 2f3e 4b7c c8bc
000000c0: a432 1d3e 98f9 0b3e 1338 2d3e b176 2f3e
000000d0: b044 013e 1bd7 3e3c 8c4f 073c 7fbc 8fbd
000000e0: 1298 b2bd 0c2b d03c a754 d53d 4576 37be
000000f0: 4363 413d 3932 0d3e 4c9f 21be 2ab4 0fbd
00000100: 3bab 15bd aefc 25be 1c39 efbd c20a f8bd
00000110: 560b 8a3d 5137 f63b 910b 603d ad93 55bd
00000120: b48e bcbd e384 4ebc 4e13 d63d 4523 b53c
00000130: 5351 453e adcd e4bd b2da cfbd 130e 24be
00000140: 5624 1ebe b661 33be 7dbf e53c db86 33bd
00000150: f9f0 06be ec2d d6bd 866c 80bd 9f04 273d
00000160: 9965 53bc ecb6 133e 5a2d 4fbc a21d b03b
00000170: 26dd 13be 1571 253e 232b 4c3e a283 ffbd
00000180: 06a2 1dbe f741 81bd 3488 a5bd 91bc b93d
00000190: 7f06 273e a1d9 edbb a184 d03d 3750 f43d
000001a0: debc 8ebd 1f03 cb3c 4473 973c a4c6 673d
000001b0: c6cc 213d 59af 463e 8161 83bd 1f02 4fbe
000001c0: f9cb e4bd 421e 183d 7ff7 23be 6132 003d
000001d0: 6369 17be 1e92 923d 7030 0c3c 2683 8bbd
000001e0: 60f9 0dbe 9bc3 8e3d b17b eebd a30f 0dbe
000001f0: b298 2c3e 6a6c 07bd 2e83 123e 1fea 93bc
00000200: 6463 943d 24b5 a83c 0c3f 00be 9f1c 943c
00000210: 275c b63d 5076 8ebd ca0b a5bd 4cec 6f3e
00000220: 3437 aabd 3459 673b 24a5 75bd 2399 83bc
00000230: c8ea 34be 523e 053e 6f53 403e 03de be3d
00000240: 0b48 083e dd38 9ebc d8d1 0f3e e932 ea3d
00000250: 05ca bfbd ab97 02be a3e0 8b3b 13b7 3cbe
00000260: a66c 8c3d 0506 a43d e13d 5e3d 7e46 053b
00000270: 5d2d 383e 65e2 33bd 9b14 10be ccba 4e3e
00000280: afde 783d b100 dbbc a459 81bd 098f 2b3e
00000290: 6b17 353d 94fe 2ebc 93a7 143e ab95 0fbe
000002a0: ce2a c23c 353c 9dbd 17b0 ae3d 3c3e 56be
000002b0: 4dc6 083e 1f24 acbd f8d6 1abd 948c 4c3d
000002c0: e527 98bd 0b04 0bbe c179 cdbd c478 103e
000002d0: a97d 45bd 0167 2b3d 4c01 bc3c 894e b53a
000002e0: 037e 693c 54b3 26bc 0381 04bd 828e 453e
000002f0: 5ef7 42be f6a6 2ebe d121 7f3b efa8 7a3d
00000300: b9cd e4bd 98df b73d a91b 43be 6fc5 8bbd
00000310: c9a9 d13d 9cf5 3fbc 9f70 47be e1ae 7bbb
00000320: d8fe c03d a387 acbd 8f57 eabd ff8c 0fbe
00000330: 441d 71bd 6d26 54bd 9049 b23b de3b 84bd
00000340: 0858 b9bd 8e0b 22be 501e f3bd 2acb 923c
00000350: e679 bc3c f1fd efbd b3fd 13be 48ff 0abe
00000360: 632c 053e 6039 7d3d b862 f2bd cfcd 9fbb
00000370: 65ea f63d 11cf 163e d872 d93c a7fe cc3d
00000380: 44d9 023e e0bd 033e 109b 183e 1f1f b4bd
00000390: 825b 263e bbec 5cbc 69a9 08be 9abd 873d
000003a0: cabc 4cbd ad9b d83d 99ed 283d 182c c73d
000003b0: 8434 3b3e b83e 853d cdff 133e 19ad 363d
000003c0: b9c5 333d fe17 c23d b641 bcba 375b 713d
000003d0: 3bd5 683d 3e84 903d 06c1 21be 6f9d 09be
000003e0: c233 9e3d e1a9 a43d e620 62bd 62b6 053e
000003f0: a4f5 e0bd 74fc 2fbd cda4 713a c47b c2bc
0.1078188 -0.035222154 0.04956526 0.17808619 -0.11078021 0.14191751 0.09753472 0.0143133225
0.10922748 0.18439698 -0.11491173 0.10261475 0.0008225692 0.087493345 0.08600129 0.062310632
0.16131519 -0.05916453 0.06358444 0.10585262 0.08053718 -0.031233624 0.08660346 -0.13446882
0.004056707 0.0027621281 0.095359825 0.015647884 0.21459432 0.053672 0.08156488 0.03535412
0.049156904 -0.09297206 0.13450523 0.11231296 -0.11091636 0.14470035 0.14040981 0.03741395
-0.02455692 0.02592821 -0.036242552 0.11250114 -0.022814212 0.12297661 0.17096876 -0.02447333
0.15351349 0.13669431 0.16915922 0.17135121 0.12623858 0.011647965 0.008258712 -0.07018375
-0.08720411 0.025411151 0.10416537 -0.1791621 0.047213804 0.1378869 -0.15783423 -0.035083927
-0.03654025 -0.16209671 -0.116808146 -0.12111427 0.067404434 0.0075139184 0.05469853 -0.052142788
-0.09206906 -0.012604925 0.10452901 0.022111544 0.19269304 -0.11172042 -0.10149135 -0.16020994
-0.15443549 -0.17517743 0.02804541 -0.04382978 -0.13177861 -0.10457978 -0.06270699 0.04077589
-0.012902641 0.14425248 -0.01264509 0.0053746263 -0.1443983 0.16156419 0.1993833 -0.12476279
-0.15393838 -0.0631141 -0.08082619 0.09069169 0.16311072 -0.0072586094 0.10181547 0.11929362
-0.06969617 0.024781762 0.01848758 0.056585923 0.039501928 0.19402827 -0.06415082 -0.20215653
-0.11171717 0.03713823 -0.16012381 0.031298045 -0.14786296 0.07156776 0.00855647 -0.06812124
-0.1386466 0.069709025 -0.11644686 -0.13775496 0.16855124 -0.033062376 0.14307854 -0.018055974
0.0724552 0.020594187 -0.1252405 0.018080054 0.089042954 -0.0695616 -0.08058889 0.23429984
-0.083113104 0.0035300972 -0.059971943 -0.016064232 -0.17667687 0.13012055 0.18781827 0.09319689
0.13308732 -0.019314224 0.14044893 0.114354916 -0.09364704 -0.12753169 0.004268722 -0.18429212
0.068566605 0.08008961 0.05425823 0.0020336206 0.17986055 -0.04391708 -0.1407036 0.20188445
0.060759243 -0.026733728 -0.06315926 0.16753782 0.044211786 -0.010680813 0.1451705 -0.14021938
0.023702051 -0.07677499 0.0852968 -0.20922178 0.13356896 -0.08405327 -0.037802666 0.049938753
-0.07429484 -0.13575761 -0.10032988 0.14108568 -0.048215542 0.04184628 0.022949837 0.0013832609
0.014251235 -0.010174591 -0.032349598 0.19292644 -0.19039676 -0.17055878 0.0038930068 0.061196264
-0.11172051 0.08978194 -0.1905352 -0.06824767 0.10237462 -0.011716273 -0.19476555 -0.0038403796
0.094236076 -0.08424308 -0.11442482 -0.1401863 -0.0588658 -0.05179446 0.0054408982 -0.06456731
-0.09049994 -0.1582472 -0.11871016 0.017919142 0.023007344 -0.11718357 -0.14452247 -0.13573945
0.13005213 0.061822295 -0.11835235 -0.004876829 0.12056426 0.14727427 0.02654402 0.100095086
0.12778193 0.128654 0.14902902 -0.087949984 0.16245845 -0.013484175 -0.13345875 0.066279605
-0.04998473 0.10576568 0.041242216 0.09725207 0.18281752 0.06506103 0.14453049 0.044598673
0.043889735 0.094772324 -0.0014362845 0.05892488 0.056843977 0.07056473 -0.15796289 -0.13438962
0.07724716 0.08040214 -0.055207156 0.13057855 -0.10984352 -0.042965367 0.00092179776 -0.023740657

arith.constant7 f4 [3, 64]
00000000: ec3d 433a 3a5f 3f3e 58bf b2bd c104 a63e
00000010: 36ef 0dbd 8307 903e 180f 6e3e 00ae 06be
00000020: 4fab 303e ab43 8cbd 2e73 a63c fb0a 2d3d
00000030: 4f04 c63d fa8d 77bd 7479 983e 6804 55be
00000040: 836c 27be cd22 54be 680a 4e3d 07b8 b5bd
00000050: d8f5 79be 92a4 9ebe cab3 4e3e add0 8a3e
00000060: f221 6fbe fd40 d33d dfb3 1abe 94e9 59be
00000070: 71ac 903e 6227 65be a11f e8bd 6d97 32be
00000080: b0c8 803e a927 9bbe a402 54be a3d5 893e
00000090: 517a 9d3e ef2b e03a 64db 5abe c8fb 463e
000000a0: ea26 803c bd6f 423d b40e 1fbc e117 1abd
000000b0: 9ff7 7d3c 7a44 473d 456a 32bd 313e 89be
000000c0: 15d7 663e 2ec0 31be ecd7 80be 48b7 debc
000000d0: 3f2e 92be 6034 81bd 4cf5 913d d074 213d
000000e0: 793f 99be c4ec 8ebe 919c fdbd 62ea 133e
000000f0: e986 1f3d 7443 7b3e 5f92 353e d9ce 83be
00000100: 6d8e 8bbe 84d5 ecbc 2728 59bd 9702 423d
00000110: 4405 5fbd 89c1 20bd c590 733e 5c54 70be
00000120: 39fc 1f3e a5ef 543e a5a4 95be af56 9f3d
00000130: 7ba0 953d 5526 9abe 998d 70be bd70 703e
00000140: 3df7 883e 2ecd 5d3d 5af9 8d3d aa35 43be
00000150: 0d63 8c3e ecff 92be 4e78 073e e4af 513d
00000160: 06c3 433d 6d86 b3bc c1a7 803e 45cc 8ebe
00000170: dc3b 4ebc 66d6 013e 9746 13bd e9b9 683e
00000180: c3cb 3a3e af64 ebbd f907 19bd 602d babd
00000190: 8c8f 353d cc70 9cbe 3e2d 193d 5a70 04bd
000001a0: 32d2 bc3e 1836 c13b 3faf 7a3e 6a10 923e
000001b0: f2ca 3dbe e2a8 993d 36e7 8d3e c2fb 04bd
000001c0: 5976 abbd f09f 9c3e 3bdd c93d 06a6 2bbd
000001d0: 32aa 31be 9452 d3bd 757c 8c3e cfe8 1d3d
000001e0: 4713 8e3e 45ca 1b3e bf02 3abe 63a8 083e
000001f0: f98e aebd 290f dd3d 8907 713e 1c30 463d
00000200: 1bf0 9d3d 3b14 593e dbbb e0bd 8d06 a1be
00000210: e0c8 3a3d 3aef 4bbc 5e67 cf3d 09e6 70be
00000220: 7912 bcbc 765d ee3d d386 e83d 1650 663e
00000230: 185d 3f3e 178c 623d 68e9 05be db14 14be
00000240: 3af1 d53d 2fb6 f0bd a967 44be bc57 bebe
00000250: face 7f3e 5002 573e e31f 9abd 6ba9 533e
00000260: 0f43 03be f464 133e 8ddd 7dbe a199 2e3e
00000270: c34d a83d 291c 6dbd 24dd 7dbc 0357 05be
00000280: c711 d1bd c05e dfbc 79d3 27bd d823 703e
00000290: 911d c53d 7745 213c 169c 533e 70ac 63be
000002a0: ee86 17bd 4e5a 8cbe 670c 843e 664d 29bd
000002b0: 762f 883e 047f 8dbe 2e14 04be 04ff c5bd
000002c0: a03f 6d3e 2093 95be 96c8 8e3e 463f 943e
000002d0: 499d bdbd ee15 063e 13e3 9bbe 6edd 62be
000002e0: 1b85 21be 25c8 0ebe 7699 9dbe d2f1 f23d
000002f0: 706f fe3d d56c 8c3e e12c 0abe 501c 6dbe
0.0007447887 0.1868867 -0.08727902 0.32425502 -0.034651957 0.2813073 0.23247945 -0.13152313
0.17252849 -0.06848844 0.020318594 0.0422468 0.096687905 -0.060438134 0.2978016 -0.20802462
-0.16349988 -0.207164 0.050302893 -0.08872991 -0.24410188 -0.30984932 0.20185772 0.27112332
-0.23352793 0.1031513 -0.15107678 -0.21280509 0.28256562 -0.22378305 -0.11334158 -0.17440577
0.25153112 -0.30303696 -0.20704132 0.26920804 0.30757383 0.0017102937 -0.21372753 0.19431984
0.015643556 0.047469843 -0.009708095 -0.03762043 0.015500932 0.04864929 -0.043558378 -0.2680526
0.22542985 -0.17358467 -0.25164735 -0.027187005 -0.28550908 -0.06308818 0.07126865 0.03941804
-0.29931238 -0.27915013 -0.12383378 0.14444879 0.03894702 0.2453745 0.17731617 -0.2574375
-0.272571 -0.028910406 -0.053016808 0.04736575 -0.05444838 -0.03924707 0.23785694 -0.2346968
0.15623559 0.20794542 -0.29227176 0.077802055 0.07306 -0.3010737 -0.23491515 0.23480506
0.26751128 0.054150753 0.06932326 -0.1906344 0.2741932 -0.28710878 0.13229486 0.051193133
0.04779341 -0.021914685 0.25127986 -0.2789022 -0.012587514 0.12679443 -0.03595599 0.22727169
0.18241791 -0.11493813 -0.03736112 -0.09090686 0.04432635 -0.30554807 0.037396662 -0.03233371
0.36879116 0.005896341 0.24480914 0.28528148 -0.18534449 0.07502915 0.27715462 -0.032466657
-0.083721824 0.30590773 0.098566495 -0.04190638 -0.1735008 -0.10318485 0.27438703 0.0385521
0.27749082 0.15213878 -0.1816511 0.13345484 -0.085233636 0.10793907 0.2353803 0.048385724
0.07711812 0.21199124 -0.109733306 -0.3145031 0.045601726 -0.012447173 0.101271376 -0.23525251
-0.022958027 0.1163892 0.11353841 0.22491488 0.18687856 0.05530938 -0.13077319 -0.1446108
0.10446401 -0.11753499 -0.19180168 -0.3717631 0.24981299 0.20996976 -0.07525613 0.20670097
-0.1281855 0.1439398 -0.24791546 0.17050792 0.08217957 -0.057888184 -0.015494619 -0.13021474
-0.10208469 -0.02726686 -0.04097316 0.23451173 0.0962478 0.009843222 0.20665011 -0.22233748
-0.036993913 -0.27412647 0.25790712 -0.04133358 0.2659871 -0.27635968 -0.12898323 -0.09667781
0.23168802 -0.2921381 0.2788741 0.28954524 -0.092585154 0.13094303 -0.3044668 -0.22154781
-0.15773432 -0.13943537 -0.30781144 0.1186253 0.12423599 0.27426782 -0.13493682 -0.23155332

arith.constant8 f4 [64, 2944]
00000000: c0ac 43bd 0d80 9a3d 88a7 f83c 06e1 a5ba
00000010: 42eb 123d 8dcc 32bd 5818 be37 4d19 a1bc
00000020: e403 303c 2c77 77bc 5788 be3c b173 233b
00000030: 6fb2 333d 593a fb3b d659 6f3d 3122 32bd
00000040: 0a44 7b3c 12c8 883c 7e34 f03c 1d20 2dbd
00000050: 9bbb e13c cb29 9a3c 0fc8 893d 61a2 813d
00000060: 5950 fd3c 512a 37bd 890f c83c 0ded 893c
00000070: a807 403d 0f96 e3bb 98ab d63c f1eb 66bc
00000080: 1259 353b 3c31 97bc 773e 193d 2d4d 3b3d
00000090: d999 023c fbe3 c9bc 51f0 893d 1603 803d
000000a0: d30a 033d 7332 093d 3460 39bd cba3 013d
000000b0: d9d6 a3bc b21a 9e3c 2394 cdbc e7ce ff3a
000000c0: 49cb 873d e6b6 6abc 3d34 ea3c b6e6 823c
000000d0: d7d5 cd3c d3a7 1fbd 10b6 03bd 75f0 1a3d
000000e0: 7d70 d4b9 2fc1 0abc 630c 08bd 111d 853c
000000f0: e698 d9bb 75f9 4b3d 48bf 8c3d 5a0a 3b3d
00000100: 69df 143d 6b66 033d 310f 403d 0224 903d
00000110: b9a2 8c3d 6dd2 3a3d d5fe b6bb e5d4 26bd
00000120: 2eca 5d3c e2de 1d3d 7d7f 853d 8d7c 28bb
00000130: ff33 893d de31 1abb 4e1f 813d 8b65 8a3d
00000140: 978d 683d 1270 a5bb de1a a53d 47c3 653d
00000150: 4b3e 04bc d7bc 0d3d 24f3 113d 31d3 a1bc
00000160: 01da 813a 76d8 62bc abe9 94bb 28f1 3c3d
00000170: b85b 223d dd79 223d c970 3d3d 2bfb f23c
00000180: cbe7 cc3d 99cc 5c3d 88c3 14bd c1b3 c23b
00000190: 88dd 6d3d 90ea b43d af60 8a3d 53fd 093d
000001a0: 1363 b53b 77b0 db3c 8a00 283c 8435 e73c
000001b0: 419f 0abd 1e7e 153d 6056 fbbb 2543 bab9
000001c0: 8c77 2bbc 5dbe 683c 02b8 f03c d8af 21bb
000001d0: c094 be3b de64 78bb 418c 37bb b9ea 9a3d
000001e0: 8252 05bd 9e39 ccba 6429 3f3d bcb6 c73c
000001f0: 0e3e a63d 6524 d23b a58c dc3c 604e 123d
00000200: f022 3fbd 12d8 ad3d 448d f9ba b6c3 22bd
00000210: dfdd c23d aea4 7d3c 4338 9a3b 24b5 313c
00000220: 94dc a3bc ee47 323d 654d dc3c 46fe 743c
00000230: 035c b63d 31c8 11bd 01ff 5dba 1e27 df3c
00000240: 3587 863d 9806 1f3d 6041 febc f369 66bd
00000250: c418 cc3a e8f5 413d ddf2 5d3d eac3 603d
00000260: 8f85 663d c206 ff3c 4c25 b23c a79f d93c
00000270: 1483 373d 583b 1f3d 0d1a c0bc 96cb 313d
00000280: 5c8e 81bc d800 8e3c 4208 013b bc2c a23d
00000290: 1e8f 5e3c 7aaa 643d d6d6 d53c f631 5e3d
000002a0: d31f c33b f62c bd3c e889 1abd 380c 9c3d
000002b0: 90c9 133c 6518 7b39 668b 0a3c 60ea 243d
000002c0: c7ac 4c3d d0da f53c e461 9dbb 1d7d 0a3b
000002d0: bdae 803d 08f9 4ebc ebc7 583c 7911 f73c
000002e0: 9236 333b 8867 203d c8d5 27ba 1ade 413c
000002f0: 35b7 c0bc 1bf3 993c 56c1 8a3c f6ea 2e3d
00000300: 5608 d23c b55e 03bd 6ac3 a83c 8fe0 2d3d
00000310: ed65 de3d e9c2 fd3c d9b3 8c3d 81c6 403d
00000320: a3b3 17bc 51a6 2ebc c9a2 233d 9b02 cb3c
00000330: 4536 a73c 7a16 dc3c fc81 18bd bb0c 14bb
00000340: 92b7 8b3d 5659 153d d000 bb3d 7588 80bb
00000350: 7709 05bd 16eb 843d 5c17 093d 3a69 0b3d
00000360: ac98 203d 9f34 a53c 05c4 ebbc 438f d43c
00000370: 90a8 5b3d b015 983d 2091 c33b 3fcb d43c
00000380: e94f a13d c1b8 74bc 0ca5 f43c 1537 5d3d
00000390: a8b5 4d3d 4fb8 ba3d c8a3 b43d 3524 c1bb
000003a0: 2913 923d 068b 9a3c c49d e9bc e64f 4d3d
000003b0: 1797 a83a 59fc 243c 6b37 fdbc 5aff ae3c
000003c0: 2fec 033d 82ef e63c 2499 5e3c 4008 583d
000003d0: 020e e23c 2613 6e3d 0256 83bd f4ce 4cbc
000003e0: ecb2 14bc a320 f7bb 98f2 843d 6aa9 243d
000003f0: 73ec a83d fe52 793d ccdd 843d dd3e 14bd
-0.04777217 0.07543955 0.030353323 -0.0012655563 0.03586889 -0.043652106 2.2661101e-05 -0.019665385
0.010743115 -0.015104096 0.023258371 0.0024940784 0.04387134 0.0076668677 0.058435284 -0.04348964
0.015336046 0.016696963 0.029321905 -0.042266954 0.027555278 0.018818757 0.06727611 0.063297994
0.030922102 -0.04471809 0.02442147 0.016836667 0.0468823 -0.0069453786 0.02620487 -0.014094339
0.0027671498 -0.018456094 0.037413087 0.045727897 0.00797125 -0.024644842 0.0673529 0.062505886
0.031992745 0.033495378 -0.045257762 0.031650346 -0.019999908 0.019299839 -0.025095051 0.0019516618
0.066305704 -0.014325833 0.028589362 0.015979152 0.02512638 -0.03897841 -0.03215605 0.037826974
-0.000405196 -0.00846891 -0.033214938 0.016249212 -0.0066405414 0.049798448 0.068724215 0.04566417
0.036345873 0.032080095 0.046889488 0.07038118 0.068669744 0.045610834 -0.0055845776 -0.040730376
0.013536973 0.038542636 0.06518457 -0.0025709004 0.066993706 -0.0023528258 0.06304799 0.06757649
0.056775656 -0.00504876 0.08061765 0.056094434 -0.008071492 0.03460392 0.035632268 -0.019754024
0.0009906889 -0.013845554 -0.004544457 0.046128422 0.03963825 0.039667 0.04625014 0.029660782
0.100051485 0.053906057 -0.036319286 0.0059418385 0.058072597 0.08833802 0.06756722 0.033688854
0.005535492 0.026817543 0.010254035 0.02822376 -0.033843283 0.036497228 -0.007670209 -0.0003552671
-0.010465514 0.014205542 0.029384617 -0.0024671461 0.005816072 -0.0037901918 -0.0028007182 0.07564301
-0.03254939 -0.0015581136 0.046670333 0.024379127 0.08117305 0.00641303 0.026922533 0.035719275
-0.04666418 0.08488478 -0.0019039293 -0.039737426 0.09514975 0.015481157 0.004706414 0.01084641
-0.02000264 0.04352563 0.026892373 0.014953202 0.089042686 -0.035591308 -0.00084684795 0.027240332
0.065687574 0.038824648 -0.031037033 -0.056253385 0.0015571346 0.047353655 0.05418669 0.05487434
0.056279715 0.031131152 0.0217463 0.026565386 0.04480274 0.038874954 -0.023449922 0.043407045
-0.015814953 0.017334387 0.001968876 0.07918689 0.0135839265 0.05582664 0.026103418 0.054246865
0.0059547215 0.023092728 -0.037729174 0.07619518 0.009020224 0.00023946313 0.008456087 0.04026258
0.04996946 0.030011564 -0.0048029292 0.0021131702 0.06283329 -0.012632616 0.013231258 0.030159699
0.002734576 0.039161235 -0.00064024003 0.011832738 -0.02352486 0.01879268 0.016937893 0.042704545
0.02563874 -0.03207274 0.020600993 0.042450484 0.108592845 0.03097673 0.06870241 0.047064308
-0.009259137 -0.01065977 0.039950166 0.024781516 0.02041162 0.026866186 -0.037233338 -0.0022590596
0.06822123 0.03646215 0.09131014 -0.003922517 -0.03247973 0.064901516 0.033469543 0.0340359
0.0392081 0.020166693 -0.028779993 0.025947219 0.05362755 0.074260116 0.005968228 0.025975822
0.0787657 -0.014936627 0.029863857 0.05400761 0.05022207 0.09117185 0.08820301 -0.005894209
0.07132561 0.01886512 -0.028517611 0.050125025 0.0012862411 0.01006993 -0.030910214 0.021361995
0.032207664 0.028190378 0.013586316 0.052742243 0.02759457 0.05812373 -0.06412889 -0.012500513
-0.009075861 -0.0075417324 0.064915836 0.04020063 0.08248224 0.060870163 0.06487617 -0.036192764

arith.constant9 f4 [3]
00000000: 22a7 843a e92b 223c 98bf fcbc
0.001012061 0.009898164 -0.030853078

arith.constant10 f4 [64]
00000000: 208b a8bb 91bf c4bb 70ac c4bb 2c0a 80bb
00000010: 2ab4 c4bb 7955 0abc 0ac4 c4bb 15b8 b23b
00000020: 40d3 1a3c bc22 133c 7b5d 3eba 067d 1bbb
00000030: 73ba c4bb 970d a3ba 5f1c 3abb fb0a 7a3b
00000040: 33c6 c4bb b28d 4abb 95d4 333b b237 923b
00000050: 1807 cebb bb11 65ba db44 483c 75b1 62bb
00000060: 9beb 683b 22c8 04bc 72ba 923b 38c1 90bb
00000070: 23b9 ee38 931f 6d3a 5f1f be3b 9e3e 41bb
00000080: dfc9 163c 73bd 02bb 08d3 efb9 7394 c3bb
00000090: d458 b8ba 3045 0bbc 7b37 443a 13b1 e1bb
000000a0: 6137 6f3c 2248 b83b 12cb 5c3b 4200 2c3c
000000b0: 2f6b 0abc 93bd 4c3c a24f 46ba 2e58 9c3b
000000c0: dd4d 17bb fcdd 293c 17be 0b3b b9fa 9ebb
000000d0: fa13 a73a 32df 2dbb 1b8b c23b e261 413c
000000e0: e34c d1ba d17f d53b 61dd f63b f7bd ddbb
000000f0: fe86 f536 8576 2dbc 48bc c4bb ad0c e5bb
-0.005143538 -0.006004282 -0.0060020015 -0.0039074626 -0.0060029225 -0.00844323 -0.006004815 0.005454073
0.00944978 0.008980449 -0.00072618545 -0.0023725643 -0.006003672 -0.0012439963 -0.0028398258 0.0038153518
-0.0060050725 -0.003090721 0.0027439941 0.004462206 -0.0062874667 -0.0008738299 0.012223448 -0.0034590636
0.0035540822 -0.008104356 0.0044777924 -0.0044175647 0.00011383209 0.00090455374 0.0058020796 -0.0029486786
0.009203403 -0.0019949346 -0.00045742863 -0.0059686243 -0.0014064559 -0.008500382 0.0007485074 -0.006887564
0.014600606 0.0056238333 0.0033690375 0.010498108 -0.008448406 0.01249637 -0.0007564967 0.004771254
-0.0023087182 0.010367867 0.002132302 -0.004851666 0.0012747042 -0.002653074 0.005936993 0.011803122
-0.0015968349 0.006515481 0.0075337146 -0.0067670303 7.317284e-06 -0.010587339 -0.00600389 -0.0069900365
